lab1/mnist.tflite (tflite, 447252 bytes, 6 tensors)

model/conv2d/Relu;model/conv2d/BiasAdd;model/conv2d/Conv2D;model/conv2d/BiasAdd/ReadVariableOp f4 [32]
-0.086483374 -0.0035952926 -0.07385479 0.09509141 -0.027566219 -0.15272596 -0.029433876 -0.0544898
-0.01597619 -0.049486864 -0.12922 -0.0040590316 -0.13136624 -0.19740231 -0.0023204572 -0.112821184
0.05216841 -0.035311334 -0.19682829 -0.033056222 0.045976445 -0.32417235 0.008933891 -0.020862266
-0.04764491 0.0021520257 -0.14074597 -0.015701521 -0.03626121 -0.1551798 -0.015887797 -0.18309331
00000000: 321e b1bd 009f 6bbb 2e41 97bd 49bf c23d
00000010: 8dd2 e1bc 3264 1cbe 501f f1bc b230 5fbd
00000020: 80e0 82bc bdb2 4abd 3f52 04be a001 85bb
00000030: df84 06be d523 4abe d012 18bb cb0e e7bd
00000040: 8bae 553d 9ea2 10bd 5b8d 49be f665 07bd
00000050: cc51 3c3d ebf9 a5be 745f 123c 58e7 aabc
00000060: 4f27 43bd 0009 0d3b b61f 10be 7aa0 80bc
00000070: a286 14bd 74e7 1ebe 2027 82bc d07c 3bbe

model/conv2d/Relu;model/conv2d/BiasAdd;model/conv2d/Conv2D;model/conv2d/BiasAdd/ReadVariableOp1 f4 [32, 3, 3, 1]
3.8296013e-05 0.00097172393 -0.0011598179 -0.00060051103 -0.0031660164 0.0011299797 0.0015220295 -0.00042307386
-0.0009135853 0.0006608943 0.0016546928 -0.0024389892 0.00037194486 0.0003165407 -0.0033209496 -0.0037660557
0.0012793264 0.0010455088 -0.0020973065 -0.0005005556 0.002193558 -0.00089918775 0.0021199365 -3.585376e-05
0.0011480079 0.00016311186 -0.0027226098 0.0013044928 3.9044207e-05 0.0013629111 7.680202e-05 0.00090173946
-0.0021452496 -0.0025607613 -0.002048896 -0.0019729468 0.0012900624 -0.00056310795 -0.0018543071 8.093846e-06
0.0016064517 -0.00011417224 -0.0016844799 -0.00118664 -0.0004713249 -0.0009144993 0.0005666981 0.0015190584
0.00030394935 6.784104e-05 0.0014139472 -0.00038531382 -0.0014066943 0.0005496098 -0.00067220925 -0.0015960808
-0.0010204455 0.0017807337 0.0018291129 -0.0006421332 0.00045528574 -0.0022429777 -0.002062953 -0.0010758649
9.932874e-05 -0.0012339725 -0.0015684958 -0.0010987816 0.0013937615 -0.00042086004 0.00011816172 -0.0011045306
-0.0017481808 -0.0005510812 -0.0008888192 -0.0005574955 -0.00014969472 0.0010511057 -0.0007926843 -0.002295978
0.0011013155 4.6330697e-06 8.103898e-06 0.00091213686 -0.00055675843 -0.0029268388 0.00066553405 -0.0010149933
-5.6898185e-05 -0.0010046352 -0.000100847865 0.00069263706 0.0012548063 0.0005371631 -0.0013307676 0.0007768433
-0.00021715368 0.0010590709 -0.0035356116 -0.0024871274 -0.0023283653 0.0029174024 0.0027816752 -0.0031985305
-0.0021222609 0.00033895983 0.0012320918 -0.0010831725 -0.00010092692 6.816007e-06 -0.0024749152 -0.00013515078
-0.00024575143 -0.0012013996 0.0015086757 -0.000885761 0.0024810021 0.001453258 0.002140406 0.0016674076
-0.0012458881 -0.0014753187 0.00041427638 -0.001987365 -0.00047803466 0.0015375501 -0.00026213354 0.0021966444
0.0014871979 -0.0016995165 -0.002853544 -0.0030879048 -0.0013750906 0.0014420319 0.0008923357 0.0012866051
-0.00021597542 -0.0025541307 0.0020957487 0.0010383645 -0.0032883217 0.0007453897 5.194224e-05 0.00020509349
-0.00061659305 -0.0028726012 0.0012375679 -0.0015919697 0.0011544033 0.0001359124 -0.0018571158 -0.0020384013
0.0009269795 -0.0017320632 0.00055157166 0.0005183425 -0.0011354779 0.0024733846 -0.0016744913 -0.0009852624
-0.0021682077 -0.00042208115 0.00015196325 0.00013662835 0.0010222304 -0.00045591794 -0.002413669 -0.0005490478
0.0012875263 -0.00068946957 0.0012328437 -0.00036578847 -0.0020095361 0.00027440742 8.791497e-05 0.001550046
0.00067066593 0.00046218422 -0.00030811355 -0.0033679535 -0.0023810735 -0.0034985526 -0.002003739 -0.0004669455
0.002034116 0.0016422946 0.0020354674 0.00089056627 -0.0011257932 -1.4726375e-05 0.000814251 0.001056069
-0.0014188146 0.0005620793 0.0010194266 -6.854707e-05 0.0008229224 -0.0008042484 -0.0007284832 -0.0012757179
-0.0009740122 -0.00015680086 -0.0023972082 -0.001149083 0.002502893 0.0012107705 -0.0010918637 0.0034819732
-0.00012493474 0.0007080494 -5.0053288e-05 -0.0005239315 -0.0014361547 -0.00035704963 -0.00018251104 -0.004843556
0.00038685443 -0.000116853495 0.0010734082 0.0002584774 0.0006397321 0.0011857896 -0.0019252956 -0.0022490395
-0.001264671 -0.0033165333 -0.0014901975 -0.00079889596 -0.0029580386 0.0015285022 9.9400866e-05 -0.0016515418
0.0011212392 0.0026457338 -0.0006197449 0.0006825664 0.00068558205 0.0015691068 -0.0025232392 -0.0018215791
0.0008950012 -0.0021446072 0.002315414 -0.0011350537 -0.0029172786 0.0017238099 -0.002148399 0.00029648424
0.0007430403 -0.0012507004 0.0003921811 0.0011471182 0.000110026725 -0.0011935767 -0.0005314998 0.00095710024
00000000: 08a0 2038 4abb 7e3a 0805 98ba 9d6b 1dba
00000010: f17c 4fbb d41b 943a d67e c73a 03d0 ddb9
00000020: ac7d 6fba de3f 2d3a 47e2 d83a 73d7 1fbb
00000030: 9801 c339 60f5 a539 4aa4 59bb eecf 76bb
00000040: 12af a73a 7409 893a f772 09bb b837 03ba
00000050: ccc1 0f3b 78b7 6bba a2ee 0a3b af61 16b8
00000060: c178 963a 0209 2b39 d06d 32bb 84fb aa3a
00000070: 66c3 2338 b5a3 b23a c510 a138 b662 6c3a
00000080: 5197 0cbb 72d2 27bb c546 06bb 8e4c 01bb
00000090: 5017 a93a 899d 13ba 390c f3ba ceca 0737
000000a0: 938f d23a c16f efb8 c4c9 dcba 0889 9bba
000000b0: 281c f7b9 02bb 6fba 778e 143a 241b c73a
000000c0: 645b 9f39 e245 8e38 3254 b93a f203 cab9
000000d0: d460 b8ba b013 103a 3337 30ba 9633 d1ba
000000e0: 78c0 85ba 8267 e93a d8be ef3a d454 28ba
000000f0: 6bb3 ee39 ecfe 12bb 9c32 07bb 0904 8dba
00000100: b64e d038 3fbd a1ba fc95 cdba fe04 90ba
00000110: e0ae b63a e1a6 dcb9 97cd f738 e6c5 90ba
00000120: 3723 e5ba 6f76 10ba a6ff 68ba e424 12ba
00000130: 5ff7 1cb9 41c5 893a 25cc 4fba 1e78 16bb
00000140: 045a 903a c475 9b36 faf5 0737 781c 6f3a
00000150: 6df3 11ba 35d0 3fbb 3c77 2e3a 8609 85ba
00000160: f6a5 6eb8 f7ad 83ba 497e d3b8 1692 353a
00000170: 5078 a43a 68d0 0c3a 276d aeba 12a5 4b3a
00000180: bfb3 63b9 86d0 8a3a b8b5 67bb 13ff 22bb
00000190: 7d97 18bb e431 3f3b c44c 363b 709e 51bb
000001a0: a115 0bbb 6bb6 b139 247e a13a 3df9 8dba
000001b0: baa8 d3b8 0eb5 e436 3032 22bb 43b7 0db9
000001c0: 33d8 80b9 4878 9dba c2be c53a 6a32 68ba
000001d0: 4f98 223b 3f7b be3a 0e46 0c3b ea8c da3a
000001e0: 114d a3ba 7b5f c1ba 3c33 d939 743e 02bb
000001f0: baa0 fab9 9f87 c93a f86e 89b9 94f5 0f3b
00000200: 15ee c23a 50c2 deba 8602 3bbb 725e 4abb
00000210: 623c b4ba 9002 bd3a a3eb 693a 4ea3 a83a
00000220: 7677 62b9 3463 27bb d458 093b bb19 883a
00000230: e280 57bb 4266 433a 8edc 5938 5d0e 5739
00000240: dca2 21ba 4042 3cbb e335 a23a a4a9 d0ba
00000250: 594f 973a b583 0e39 776a f3ba b396 05bb
00000260: 8b00 733a 6606 e3ba 5997 103a 60e1 073a
00000270: 51d4 94ba 8218 223b 9b7a dbba ec23 81ba
00000280: 7d18 0ebb c64a ddb9 5358 1f39 e543 0f39
00000290: 5cfc 853a 4508 efb9 a52e 1ebb f9ed 0fba
000002a0: 37c2 a83a 85bd 34ba 5f97 a13a 4cc7 bfb9
000002b0: 6cb2 03bb 57de 8f39 fd5e b838 ea2a cb3a
000002c0: a1cf 2f3a 5151 f239 4d8a a1b9 e2b8 5cbb
000002d0: c90b 1cbb f947 65bb 2951 03bb 5dd0 f4b9
000002e0: ce4e 053b 4342 d73a 7a65 053b e474 693a
000002f0: 5a8f 93ba 4d11 77b7 7673 553a cc6b 8a3a
00000300: 85f7 b9ba 8158 133a 489e 853a eec0 8fb8
00000310: 63b9 573a 32d4 52ba aef7 3eba fd35 a7ba
00000320: da54 7fba e96a 24b9 7b1a 1dbb d49c 96ba
00000330: 9407 243b b7b2 9e3a de1c 8fba d131 643b
00000340: ea00 03b9 649c 393a 4ff0 51b8 7358 09ba
00000350: 5b3d bcba 6432 bbb9 6f60 3fb9 b1b6 9ebb
00000360: b9d2 ca39 3e0f f5b8 9ab1 8c3a 4084 8739
00000370: b2b3 273a 7f6c 9b3a 335a fcba 9f64 13bb
00000380: 51c3 a5ba 325a 59bb bb52 c3ba 006d 51ba
00000390: a7db 41bb 0658 c83a 6f75 d038 8c78 d8ba
000003a0: 8bf6 923a 0c64 2d3b 6076 22ba 41ee 323a
000003b0: a2b8 333a 7daa cd3a ee5c 25bb 0dc2 eeba
000003c0: 849e 6a3a 8a8c 0cbb 33be 173b 15c6 94ba
000003d0: d02f 3fbb 76f1 e13a 27cc 0cbb 7171 9b39
000003e0: 97c8 423a 8bee a3ba a89d cd39 e65a 963a
000003f0: 26be e638 ca71 9cba 5954 0bba e9e5 7a3a

model/conv2d_1/BiasAdd/ReadVariableOp f4 [64]
-0.048398186 -0.00674043 -0.051649183 -0.009004402 -0.025942866 -0.05095084 -0.07183534 -0.053895533
-0.066426046 -0.03809216 -0.02738964 -0.03195504 -0.05310684 -0.03440231 -0.040499844 -0.037364576
-0.0451264 -0.014817515 0.015164712 -0.03951553 -0.003477605 -0.03467763 -0.018546537 -0.08284655
-0.014795803 0.01090016 -0.05955983 0.006760996 -0.019854857 -0.021767518 -0.07310314 -0.078279555
-0.06715756 -0.017307568 -0.035469096 0.011356717 -0.042984586 -0.04547936 -0.09339549 -0.031165743
-0.010813492 -0.022570621 -0.0678782 -0.05337677 -0.035719685 0.018267186 -0.073339924 0.093141116
-0.015408855 -0.0038233795 -0.09540025 -0.078592196 -0.017026646 -0.06821476 -0.016879 -0.008684932
0.0027721494 -0.0105430875 -0.08355331 -0.072235815 -0.017734446 -0.015381899 0.0047966936 -0.016646946
00000000: 2d3d 46bd d3de dcbb 188e 53bd 3387 13bc
00000010: 2286 d4bc d4b1 50bd 681e 93bd 90c1 5cbd
00000020: 610a 88bd 8606 1cbd 3d60 e0bc 4ae3 02bd
00000030: 8f86 59bd 70e9 0cbd 2ae3 25bd 990b 19bd
00000040: 76d6 38bd 2ac5 72bc 6a75 783c 09db 21bd
00000050: 88e8 63bb 210a 0ebd e8ee 97bc 74ab a9bd
00000060: 196a 72bc 9696 323c 02f5 73bd 588b dd3b
00000070: a7a6 a2bc cb51 b2bc 19b7 95bd 0851 a0bd
00000080: e789 89bd 9ac8 8dbc 0b48 11bd 8611 3a3c
00000090: 9b10 30bd 9148 3abd 2246 bfbd 4d4f ffbc
000000a0: 132b 31bc 06e6 b8bc ba03 8bbd 9aa1 5abd
000000b0: ce4e 12bd 11a5 953c 3e33 96bd c5c0 be3d
000000c0: 6c75 7cbc aa91 7abb 3561 c3bd f2f4 a0bd
000000d0: 777b 8bbc 2eb4 8bbd d445 8abc 3f4b 0ebc
000000e0: f3ac 353b eabc 2cbc ff1d abbd 5ff0 93bd
000000f0: d447 91bc 5c04 7cbc 952d 9d3b 2d5f 88bc

model/conv2d_1/Conv2D f4 [64, 3, 3, 32]
0.20614305 -0.22721648 -0.17530169 -0.022895858 0.046688333 -0.13828725 0.19740391 0.06675579
-0.16119625 -0.08155706 0.014681108 -0.15178162 0.03180646 -0.20350236 -0.438477 0.15154876
-0.30180335 -0.22973949 0.12498688 0.110609934 0.102961965 -0.12423253 0.14292711 -0.097600706
0.03794393 -0.09478805 -0.12537464 -0.08538232 -0.23650682 -0.20177546 -0.24558449 -0.13694194
-0.23288903 0.018100362 0.029560054 -0.079226196 -0.0054127113 -0.08371132 0.12445558 0.16518271
0.01427403 -0.0050074733 -0.157008 -0.20254746 0.01545175 -0.054332048 -0.118103035 0.036649495
-0.065411545 -0.016469343 -0.028800733 0.09543902 0.13505848 -0.03179256 0.09510339 -0.07272412
-0.032387946 0.016515117 -0.28934652 0.0061084093 -0.081795044 -0.14522772 -0.14791377 -0.2916202
-0.20749417 0.0049015963 0.0450984 -0.18776116 -0.016469765 -0.0834887 0.16430493 0.045503266
-0.09317605 -0.01893325 -0.13196352 0.0718629 0.08182234 -0.121319056 -0.26677564 0.14423786
0.014431366 0.15279542 -0.11714951 0.08408875 0.2533097 -0.20131353 0.058629572 -0.11298951
-0.09034318 0.2374111 0.0121449195 0.12377225 -0.03478216 0.0023521066 -0.26311743 0.004837436
-0.109439716 -0.08230378 -0.11031753 0.16275886 0.031498656 -0.030753931 -0.05825428 -0.13927032
-0.12720576 -0.040463474 0.09696716 -0.099542804 -0.010642002 0.07037165 0.12822828 -0.240099
-0.21388283 -0.12396371 -0.0038673163 0.03244336 0.06825296 -0.13904847 -0.24240799 0.14669009
0.06772463 -0.073949315 0.17956227 -0.08192943 -0.35137826 0.061028 -0.10938922 -0.004118839
-0.21773008 0.08321879 0.07530281 0.079029046 0.044573054 0.046088636 -0.13922831 -0.020801492
-0.2980812 0.15139888 0.03094308 0.04787972 -0.02575246 0.033604193 0.106716 -0.09593379
-0.0570494 0.017541097 -0.08242652 -0.1345531 -0.09007151 -0.03551254 -0.18232171 0.12284107
0.041699186 -0.46875793 -0.15319906 -0.17878348 -0.28856355 -0.047491692 0.16461495 -0.1048015
0.048338942 0.15058771 -0.06588094 -0.0058387523 0.07157899 0.03632822 -0.10245964 -0.049289536
-0.11060973 0.105741546 0.027812196 -0.3712892 -0.37097794 0.033326868 0.067904696 -0.12633666
-0.07369347 0.0665007 0.02994247 -0.15731485 -0.13276565 0.02584558 -0.097137965 0.0477618
-0.04366902 -0.24459541 -0.039520953 -0.14942862 0.022617687 -0.19311954 0.05254929 0.071621925
0.013646011 -0.074550785 -0.020248193 0.08152374 -0.13824883 -0.15534379 -0.028580131 -0.21975638
-0.3210386 -0.07668245 0.024523946 -0.17962642 -0.20733145 -0.08722292 -0.04850015 -0.19464846
-0.13861252 -0.01803108 -0.063049965 0.019435612 -0.23158023 -0.10605964 -0.11394578 0.06662457
-0.05840195 -0.414111 0.1238277 -0.5801945 0.09397323 -0.13457419 0.033100072 -0.01761744
-0.09755888 -0.00012980067 -0.03894911 0.11204471 -0.019283267 -0.011196253 0.028045397 -0.1529972
-0.20732786 -0.15355618 -0.017159197 -0.12648886 -0.2949319 -0.032130178 0.037525553 -0.3347968
-0.0387282 0.068641044 -0.25865513 0.06825621 -0.255587 -0.058896434 -0.24646622 0.11688322
-0.037577335 -0.18183365 -0.2247078 -0.16928354 -0.22255833 -0.18681926 0.010478954 -0.06541562
00000000: 2a17 533e 70ab 68be 4982 33be 1890 bbbc
00000010: 443c 3f3d 2c9b 0dbe 4024 4a3e 42b7 883d
00000020: a110 25be 6307 a7bd 0889 703c a46c 1bbe
00000030: 7e47 023d ec62 50be 0f80 e0be 992f 1b3e
00000040: f885 9abe d440 6bbe 1ff9 ff3d 7687 e23d
00000050: b9dd d23d a06d febd 7c5b 123e e1e2 c7bd
00000060: 186b 1b3d 3d20 c2bd 3662 00be eddc aebd
00000070: d82e 72be 3a9e 4ebe 807a 7bbe 823a 0cbe
00000080: 767a 6ebe 3647 943c ed27 f23c 5841 a2bd
00000090: 1d5d b1bb d770 abbd 91e2 fe3d a825 293e
000000a0: 9fdd 693c bb15 a4bb b5c6 20be 9a68 4fbe
000000b0: 5629 7d3c 488b 5ebd 01e0 f1bd c81d 163d
000000c0: 7df6 85bd b7ea 86bc 84ef ebbc 8875 c33d
000000d0: c54c 0a3e ea38 02bd 91c5 c23d 62f0 94bd
000000e0: 39a9 04bd b64a 873c 3a25 94be 0d29 c83b
000000f0: 2984 a7bd 93b6 14be b576 17be 3e4f 95be
00000100: 5a79 54be 929d a03b 1ab9 383d 7644 40be
00000110: 9aeb 86bc 20fc aabd 8d3f 283e a261 3a3d
00000120: 16d3 bebd e719 9bbc 7221 07be db2c 933d
00000130: 7992 a73d 2076 f8bd d196 88be 17b3 133e
00000140: 8971 6c3c 6776 1c3e 15ec efbd b936 ac3d
00000150: cfb1 813e 2225 4ebe 9025 703d 0b67 e7bd
00000160: d805 b9bd e51b 733e 7cfb 463c 4e7c fd3d
00000170: bd77 0ebd cd25 1a3b 54b7 86be 5b83 9e3b
00000180: ee21 e0bd e28e a8bd 28ee e1bd 42aa 263e
00000190: bc04 013d abef fbbc 0a9c 6ebd e19c 0ebe
000001a0: 3a42 02be 07bd 25bd b896 c63d 19dd cbbd
000001b0: cb5b 2ebc 031f 903d 464e 033e 83dc 75be
000001c0: 1a04 5bbe b0e0 fdbd cd72 7dbb 54e3 043d
000001d0: 35c8 8b3d b962 0ebe cd39 78be ed35 163e
000001e0: 36b3 8a3d bd72 97bd 2cdf 373e 9eca a7bd
000001f0: dae7 b3be 7ff8 793d 7507 e0bd 53f7 86bb
00000200: a2f4 5ebe 9d6e aa3d 5c38 9a3d fbd9 a13d
00000210: 3c92 363d 70c7 3c3d de91 0ebe e467 aabc
00000220: 199e 98be 4f08 1b3e 587c fd3c 861d 443d
00000230: d3f6 d2bc 8da4 093d eb8d da3d ef78 c4bd
00000240: a2ac 69bd 59b2 8f3c 3ccf a8bd 4ac8 09be
00000250: 6977 b8bd 9975 11bd 8bb2 3abe 1994 fb3d
00000260: c4cc 2a3d 0a01 f0be 37e0 1cbe 0413 37be
00000270: 9abe 93be a686 42bd d290 283e 2ba2 d6bd
00000280: 0eff 453d aa33 1a3e 96ec 86bd 0153 bfbb
00000290: 0198 923d e6cc 143d 5cd6 d1bd d3e3 49bd
000002a0: 5b87 e2bd 068f d83d 67d6 e33c 9e19 bebe
000002b0: d2f0 bdbe c181 083d 9e11 8b3d 665e 01be
000002c0: 9aec 96bd 8531 883d e949 f53c 2517 21be
000002d0: b8f3 07be 1cba d33c 45f0 c6bd e1a1 433d
000002e0: 49de 32bd 3877 7abe b9e0 21bd d103 19be
000002f0: ba48 b93c 21c1 45be ed3d 573d 84ae 923d
00000300: 8593 5f3c 15ae 98bd 8adf a5bc ebf5 a63d
00000310: 1a91 0dbe 7112 1fbe e120 eabc d107 61be
00000320: 2c5f a4be b00b 9dbd 71e6 c83c fdef 37be
00000330: b24e 54be eea1 b2bd 18a8 46bd ed51 47be
00000340: 71f0 0dbe eab5 93bc 5720 81bd 6f37 9f3c
00000350: 5e23 6dbe cc35 d9bd 685c e9bd 7672 883d
00000360: e236 6fbd 5b06 d4be 6199 fd3d a087 14bf
00000370: 0975 c03d d1cd 09be f193 073d 7352 90bc
00000380: f3cc c7bd 1a1b 08b9 1a89 1fbd b277 e53d
00000390: f1f7 9dbc 7d70 37bc 76bf e53c 4cab 1cbe
000003a0: c14d 54be d53d 1dbe 7291 8cbc 4c86 01be
000003b0: 5001 97be ef9a 03bd 65b4 193d 7c6a abbe
000003c0: 76a1 1ebd ad93 8c3d 726e 84be e9c9 8b3d
000003d0: 4ddc 82be 633d 71bd a461 7cbe 7860 ef3d
000003e0: b1ea 19bd 9a32 3abe cd19 66be aa58 2dbe
000003f0: 55e6 63be 8c4d 3fbe ebaf 2b3c a0f8 85bd

model/dense/BiasAdd/ReadVariableOp f4 [10]
0.0036276442 0.34669414 0.04384889 -0.023428934 -0.037709996 0.0033959856 -0.017989442 0.12672254
-0.23246904 -0.088125914
00000000: c5bd 6d3b e581 b13e e59a 333d 09ee bfbc
00000010: cc75 1abd 2f8f 5e3b 985e 93bc 8ec3 013e
00000020: 5d0c 6ebe 5c7b b4bd

model/dense/MatMul f4 [10, 9216]
0.013142514 -0.12716016 -0.0037754476 -0.11862114 -0.013939654 -0.016654458 0.0007093001 -0.0017719781
-0.024802929 0.072889045 0.0368399 0.03687059 -0.004000961 0.106645636 0.07423382 0.016580772
0.019244615 -0.04928991 -0.028062707 -0.02937675 -0.049662746 0.005666628 0.11223025 0.0019543061
-0.07814097 -0.15565692 -0.023254879 -0.102605306 -0.08790716 -0.03401726 -0.06255595 0.018982252
0.037474122 0.017631082 0.009482411 0.018009624 -0.027695877 0.08116544 -0.06982358 -0.022650879
0.010561072 0.019503139 0.0011198636 -0.035253644 0.0014061877 -0.016075017 -0.031767372 -0.13859625
-0.05805812 -0.052088365 -0.048464652 -0.019792106 0.11178883 0.068861105 0.024553541 0.020184364
0.010105077 -0.02048727 -0.014208276 0.031071117 0.055678844 0.07705017 0.028908096 -0.029024415
0.08545903 -0.11434113 -0.016547732 -0.016525941 0.037350904 0.023773499 0.183238 -0.033836216
-0.0076670563 -0.068991885 0.016673682 -0.16052648 -0.01776083 0.09789225 -0.12442964 -0.13760744
-0.090281285 -0.08995184 -0.09192459 -0.08068801 0.022525655 0.07626144 -0.1754529 0.014333132
-0.19641466 -0.024425609 -0.013696297 -0.012502862 -0.06357603 -0.027675431 -0.10790924 0.08952885
-0.09134704 -0.021958878 -0.03658533 -0.061380994 -0.05579762 -0.12931345 -0.14637212 0.0062304744
0.037696317 -0.08078559 0.018273799 -0.022954244 -0.010961757 0.0007777871 -0.071696185 -0.08604368
0.10052336 -0.016763031 -0.08782247 -0.034478225 -0.016798923 0.14925946 0.00036075347 -0.0032439353
-0.023101857 -0.1247137 -0.06930879 -0.031678755 -0.1228933 -0.06947696 -0.031826653 -0.084990144
-0.018427415 0.022904087 -0.13960534 0.0385595 -0.119452834 -0.13686536 0.07368315 -0.095297165
0.01049847 -0.049481556 -0.040725134 -0.034214962 0.015674459 0.0010262514 -0.19306204 -0.08490942
0.10080791 0.048950177 -0.0055479994 -0.01313187 -0.14380983 -0.027136996 -0.006766642 -0.008440131
0.12972212 -0.056878977 -0.01711324 -0.22845298 0.018365018 0.0053000464 0.03264546 -0.054247197
-0.05430181 -0.024571737 -0.019717501 0.05638029 -0.065361105 0.068116166 0.06406238 -0.05616557
-0.021479603 -0.008114434 0.017117258 -0.038371395 -0.07230112 -0.0068645477 -0.122214034 0.039020646
0.03460707 -0.28633192 -0.08964817 -0.03724831 0.03361531 0.090974174 -0.14809883 -0.045594547
-0.0027979824 -0.019787766 0.07142387 -0.06592901 -0.25674692 0.011572321 0.05322095 0.12372637
-0.07958091 -0.09014381 0.058966633 -0.07439513 -0.061351486 -0.07934125 -0.018938642 -0.038264364
0.0001333628 -0.0803298 -0.083143435 -0.19162646 0.04214607 -0.13355732 -0.0053060353 -0.079849645
-0.07206235 -0.10713754 0.0064382786 -0.08431641 -0.1086106 0.12495615 -0.045477327 -0.010452247
-0.21381575 -0.10582979 -0.011696919 0.10190526 -0.04450309 -0.012790539 0.0005816907 0.0044295564
-0.030811565 -0.060644493 -0.08916091 -0.119408056 -0.0057416456 -0.012455928 0.069042295 -0.0146480445
-0.07772513 -0.1546698 -0.026080703 -0.0015587579 -0.0046014423 -0.07573983 -0.13444999 -0.05919954
-0.04344 -0.049590003 -0.115836285 -0.06473342 -0.036483817 0.0066219666 -0.09828458 -0.035600618
-0.076515004 -0.24010885 -0.03885605 0.037218884 -0.036728196 -0.063083544 -0.014529411 -0.07510526
00000000: b353 573c 4636 02be 806d 77bb a4ef f2bd
00000010: 2663 64bc ee6e 88bc 53f0 393a b841 e8ba
00000020: 832f cbbc da46 953d 6fe5 163d 9e05 173d
00000030: 7e1a 83bb 0769 da3d e707 983d 66d4 873c
00000040: e2a6 9d3c 37e4 49bd c3e3 e5bc 83a7 f0bc
00000050: 2a6b 4bbd 1faf b93b f9d8 e53d d113 003b
00000060: 5f08 a0bd 8764 1fbe 0481 bebc bb22 d2bd
00000070: ab08 b4bd af55 0bbd 551d 80bd ab80 9b3c
00000080: 777e 193d 0f6f 903c 1d5c 1b3c eb88 933c
00000090: 77e2 e2bc 113a a63d aaff 8ebd 568e b9bc
000000a0: 5908 2d3c 0cc5 9f3c 63c8 923a 2066 10bd
000000b0: d44f b83a c1af 83bc 811e 02bd 2dec 0dbe
000000c0: 5ace 6dbd 9c5a 55bd df82 46bd 0e23 a2bc
000000d0: 8bf1 e43d 0d07 8d3d 8224 c93c ae59 a53c
000000e0: c48f 253c ebd4 a7bc d4c9 68bc db88 fe3c
000000f0: 800f 643d 7bcc 9d3d acd0 ec3c 9cc4 edbc
00000100: 2505 af3d af2b eabd 1c8f 87bc 6961 87bc
00000110: 43fd 183d a4c0 c23c bea2 3b3e d897 0abd
00000120: ee3b fbbb 9e4b 8dbd 3f97 883c 0e61 24be
00000130: 297f 91bc bb7b c83d f8d4 febd f7e8 0cbe
00000140: 65e5 b8bd ac38 b8bd f642 bcbd c13f a5bd
00000150: b987 b83c f52e 9c3d eda9 33be 83d5 6a3c
00000160: ed20 49be 3718 c8bc 6f66 60bc ced8 4cbc
00000170: 2634 82bd 96b7 e2bc 85ff dcbd e75a b73d
00000180: 2814 bbbd 1be3 b3bc 80da 15bd a36a 7bbd
00000190: 0c8c 64bd bf6a 04be 93e2 15be 0229 cc3b
000001a0: 7467 1a3d ea72 a5bd efb2 953c 8a0a bcbc
000001b0: f198 33bc 69e4 4b3a 73d5 92bd ab37 b0bd
000001c0: 31df cd3d a052 89bc 44dc b3bd 0a39 0dbd
000001d0: e59d 89bc 79d7 183e 8323 bd39 3498 54bb
000001e0: 1b40 bdbc e569 ffbd c4f1 8dbd 95c1 01bd
000001f0: 7caf fbbd f049 8ebd aa5c 02bd 500f aebd
00000200: 17f5 96bc 5aa1 bb3c b4f4 0ebe 91f0 1d3d
00000210: b0a3 f4bd 6f26 0cbe 31e7 963d 292b c3bd
00000220: c601 2c3c 2cad 4abd 66cf 26bd fd24 0cbd
00000230: b967 803c 4883 863a 0eb2 45be fde4 adbd
00000240: 6174 ce3d fb7f 483d fecb b5bb 0e27 57bc
00000250: e242 13be 684e debc b5ba ddbb 7a48 0abc
00000260: e0d5 043e eef9 68bd 1131 8cbc 94ef 69be
00000270: 3c72 963c 03ac ad3b 3fb7 053d 4f32 5ebd
00000280: 936b 5ebd ab4a c9bc 9986 a1bc 05ef 663d
00000290: 0bdc 85bd 7d80 8b3d 2333 833d de0d 66bd
000002a0: fef5 afbc 67f2 04bc 7e39 8c3c 532b 1dbd
000002b0: 9c12 94bd 00f0 e0bb 5a4b fabd 1dd4 1f3d
000002c0: 25c0 0d3d 199a 92be 7699 b7bd af91 18bd
000002d0: 35b0 093d ab50 ba3d 38a7 17be 59c1 3abd
000002e0: 5b5e 37bb f419 a2bc ae46 923d ca05 87bd
000002f0: 5574 83be d599 3d3c 36fe 593d 4064 fd3d
00000300: 51fb a2bd 519d b8bd ff86 713d 795c 98bd
00000310: b24b 7bbd aa7d a2bd 3625 9bbc 18bb 1cbd
00000320: 4ed7 0b39 f383 a4bd 1b47 aabd ba39 44be
00000330: 5ca1 2c3d 40c3 08be 40de adbb 3688 a3bd
00000340: 6d95 93bd ed6a dbbd 32f8 d23b 15ae acbd
00000350: 3c6f debd 03e9 ff3d 6f46 3abd e73f 2bbc
00000360: 84f2 5abe 4abd d8bd 6fa4 3fbc b4b3 d03d
00000370: df48 36bd 698f 51bc 9a7c 183a d025 913b
00000380: 8968 fcbc 5c66 78bd ff99 b6bd 368c f4bd
00000390: 6a24 bcbb f313 4cbc 0c66 8d3d 5afe 6fbc
000003a0: 5a2e 9fbd c361 1ebe 33a7 d5bc 3c4f ccba
000003b0: b2c7 96bb 7c1d 9bbd 42ad 09be 387b 72bd
000003c0: 24ee 31bd e31e 4bbd 933b edbd f592 84bd
000003d0: 0e70 15bd 15fd d83b 6d49 c9bd f4d1 11bd
000003e0: e6b3 9cbd 18df 75be 8627 1fbd d472 183d
000003f0: 4e70 16bd f231 81bd c40c 6ebc c9d0 99bd
