lab1/mnist2.tflite (tflite, 447252 bytes, 6 tensors)

model/conv2d/Relu;model/conv2d/BiasAdd;model/conv2d/Conv2D;model/conv2d/BiasAdd/ReadVariableOp f4 [32]
0	0xbe94effd	-0.29089347
1	0xbd0f11fa	-0.034929253
2	0xbdda3f1b	-0.10656568
3	0xbd4fc9de	-0.050729625
4	0xbe1c49b1	-0.15262486
5	0x3cd1f9a2	0.02563173
6	0xbddd8e4c	-0.108181566
7	0xbd107850	-0.03527099
8	0xbd2c517e	-0.042069905
9	0xbca5769a	-0.020198155
10	0xbd23fe07	-0.04003718
11	0xbd036fb8	-0.032088965
12	0xbd6e6e21	-0.058210496
13	0xbe9bdcbc	-0.30441844
14	0xbe17c0a4	-0.1481958
15	0xbd22dab8	-0.039759368
16	0xbcf5ef12	-0.030021224
17	0xbd5ae2ce	-0.053438954
18	0x3e59adce	0.21257707
19	0xbe63ece1	-0.22258331
20	0xbddabbc8	-0.10680348
21	0xbe8a9f67	-0.2707474
22	0xbdac986a	-0.08427508
23	0xbeb32056	-0.34985608
24	0xbd8a01f0	-0.06738651
25	0xbdd9e82a	-0.10639985
26	0xbc4751a8	-0.012165464
27	0xbe3c8230	-0.18409038
28	0xbe3aa325	-0.18226297
29	0xbeaddbd0	-0.33956766
30	0x3d4eeafb	0.050517064
31	0xbe0c2082	-0.13684276

model/conv2d/Relu;model/conv2d/BiasAdd;model/conv2d/Conv2D;model/conv2d/BiasAdd/ReadVariableOp1 f4 [32, 3, 3, 1]
0	0xbb22aafb	-0.002482115
1	0x3a16905e	0.0005743558
2	0x3b0380fe	0.00200659
3	0x3aa9abd2	0.0012944883
4	0x3b3081e6	0.0026932894
5	0xba3f9545	-0.00073083147
6	0x3a92b351	0.0011192356
7	0xba0a7a16	-0.00052824744
8	0xbb29a38c	-0.0025884835
9	0x3a85ea47	0.0010216915
10	0x3a608b52	0.0008565682
11	0x3ac211e0	0.0014806353
12	0xba49a040	-0.00076914206
13	0x39bafbeb	0.00035664378
14	0x3a678291	0.00088314066
15	0xbb3be72a	-0.002867172
16	0xbab2fc70	-0.0013655555
17	0xbb54a7e2	-0.0032448699
18	0xbb47422c	-0.0030404432
19	0x3a107f91	0.0005512173
20	0xba405d28	-0.00073381
21	0xbafe1864	-0.0019385931
22	0x3b2ecae6	0.002667123
23	0xb8422271	-4.628528e-05
24	0xba0cec9a	-0.00053758326
25	0xbb48ac93	-0.003062044
26	0x3a2a79ba	0.0006503124
27	0xbb043628	-0.0020173881
28	0x3b0c0408	0.0021364707
29	0xba8b55a0	-0.0010630377
30	0xba772951	-0.0009428459
31	0x3a783c7f	0.0009469464
32	0xbafb149c	-0.0019155922
33	0x3ada8540	0.0016671792
34	0xbb1cfa2c	-0.0023952825
35	0xbb264794	-0.0025372254
36	0x39f0ca2d	0.00045927
37	0xba6857f8	-0.0008863206
38	0xba05d7e5	-0.0005105718
39	0x3af3ee62	0.0018610472
40	0xbb0f7824	-0.0021891678
41	0xbb15d71e	-0.0022863816
42	0x3ab7be9d	0.0014018599
43	0x3a94ba92	0.0011347106
44	0x3abbbdac	0.0014323494
45	0xbaf2e498	-0.0018531261
46	0xba7e2da9	-0.0009696135
47	0xbb974814	-0.0046167467
48	0xbb07ce7e	-0.0020722444
49	0x3a5be05b	0.00083876186
50	0x3a224e39	0.00061914657
51	0xbb1300f2	-0.0022430983
52	0x3a0259fc	0.0004972515
53	0x3a8dd2a5	0.0010820223
54	0xbb2eba81	-0.0026661458
55	0x3a8d1635	0.0010764065
56	0xbb01522a	-0.0019732811
57	0xbb043849	-0.002017515
58	0x3b4763f1	0.003042456
59	0xbb2d103d	-0.0026407384
60	0xb8dcf2e4	-0.000105356594
61	0xbb14f7bc	-0.002273067
62	0x39f49df9	0.00046657005
63	0xba13d3d4	-0.000563917
64	0xbb264ca7	-0.0025375278
65	0xbb168643	-0.002296821
66	0xba1be9e6	-0.00059476343
67	0x3b14aa99	0.0022684692
68	0xbb23260a	-0.00248945
69	0x3b02c60b	0.0019954469
70	0x3a2ffad5	0.0006713097
71	0xbb789967	-0.0037933232
72	0xbb3d4389	-0.0028879365
73	0xbb3e5cf3	-0.0029047101
74	0x394e51d7	0.00019676179
75	0x3b29fd98	0.0025938507
76	0x3a8c498d	0.0010703072
77	0x3b1238d0	0.0022311695
78	0xbae49060	-0.0017438047
79	0xba43ce78	-0.0007469426
80	0xbb2cf170	-0.0026389025
81	0xb8a252b8	-7.7401695e-05
82	0x3a9d896a	0.0012019102
83	0x3950d8ba	0.00019917163
84	0xba966501	-0.0011474193
85	0x3ac5faa4	0.0015104604
86	0xbb3532da	-0.0027648718
87	0xbb720cb7	-0.0036933848
88	0xba9e9fa4	-0.001210202
89	0xbac7add8	-0.0015234305
90	0x3a83150b	0.0010000778
91	0xbadfa20d	-0.0017061845
92	0xbb0d1f0c	-0.0021533398
93	0x3aa7277f	0.001275286
94	0xbb4c3826	-0.0031161397
95	0x3af35d3c	0.0018567215
96	0xbb96429b	-0.0045855767
97	0xbaec6b1d	-0.0018037293
98	0x3b3aa14a	0.0028477483
99	0xb97b39d0	-0.00023958762
100	0xb900ded7	-0.00012290046
101	0x3af36c99	0.0018571793
102	0xbb9a010a	-0.004699831
103	0xb97a25a1	-0.00023855876
104	0xba1881cd	-0.00058176817
105	0x3b235b2a	0.0024926164
106	0xb9e03fff	-0.0004277229
107	0xbb4d3fb8	-0.0031318497
108	0xbabcad67	-0.001439494
109	0xbb32df4b	-0.0027293738
110	0xbab45677	-0.0013758679
111	0x3a6769cc	0.00088277156
112	0x3b936fb1	0.0044993986
113	0xbb330845	-0.0027318161
114	0xbbc5afc5	-0.0060329163
115	0x3a9fbdf0	0.0012187343
116	0x3a8f4239	0.001092977
117	0xb908ce40	-0.00013046805
118	0x3a307239	0.00067308877
119	0xb9d76ab1	-0.00041087487
120	0x398aab6e	0.00026449136
121	0xba228901	-0.0006200225
122	0xb9f50a1d	-0.00046737576
123	0xb9b09c13	-0.0003368562
124	0xb9ee8175	-0.0004549135
125	0x39f66545	0.00046996228
126	0x3958b15e	0.0002066544
127	0x38fc9d8f	0.00012045644
128	0xbb825b7d	-0.0039781914
129	0x3a5f4624	0.00085172267
130	0x3abd8c18	0.0014461307
131	0x3a65abbc	0.0008761247
132	0x35d66be4	1.5975643e-06
133	0xbafba668	-0.0019199373
134	0x3aec0e3b	0.0018009612
135	0x3a59b2c8	0.00083045335
136	0xba9f1201	-0.0012136103
137	0x39034c99	0.00012521668
138	0xbba3af6f	-0.0049952785
139	0x384e1595	4.9134327e-05
140	0xba629e8a	-0.000864484
141	0xba256c23	-0.0006310364
142	0x3b89fa4e	0.004210747
143	0xbb6ab7e8	-0.0035815183
144	0xbb6fc424	-0.0036585415
145	0xb8ecc903	-0.00011290798
146	0x3b40ec10	0.002943758
147	0xb9f4dfe4	-0.00046706118
148	0xbad34673	-0.0016119018
149	0xba80cfc9	-0.000982755
150	0xb9cccde7	-0.0003906332
151	0xbb0fbcdc	-0.0021932637
152	0xbaa45241	-0.0012536721
153	0x3acc81c9	0.0015602644
154	0xba87d51f	-0.0010363198
155	0xba80ba3c	-0.0009821127
156	0x3a94a780	0.0011341423
157	0xba280a4b	-0.0006410225
158	0xbae72253	-0.0017634131
159	0x3ae3c135	0.0017376306
160	0xbb0b3470	-0.0021240972
161	0xba3195c8	-0.00067743333
162	0x39c7917d	0.00038064635
163	0x3a6bcba5	0.0008994884
164	0xbbbed7a0	-0.0058240443
165	0x3b6297ff	0.003457546
166	0xba7964ec	-0.0009513635
167	0xbb1dd414	-0.0024082707
168	0xbb571d2e	-0.003282379
169	0xbb4c41b3	-0.003116709
170	0xba902ea7	-0.0011000232
171	0x39a0b70a	0.00030653953
172	0xbb506dca	-0.003180372
173	0x399bbec0	0.00029706024
174	0xb977529e	-0.00023586533
175	0xbb070911	-0.002060477
176	0x3986e8cd	0.00025731922
177	0x3a293ddd	0.0006456057
178	0xbb159301	-0.0022823217
179	0xb9359a82	-0.00017319064
180	0xb9074b2e	-0.0001290261
181	0xb87ac897	-5.979146e-05
182	0xbac87ebd	-0.001529656
183	0xba01c909	-0.0004950916
184	0x38944f50	7.071963e-05
185	0xba08d826	-0.0005220197
186	0x39a90816	0.00032240216
187	0xba119019	-0.0005552783
188	0xbad20864	-0.0016024229
189	0xb99c7b47	-0.00029846487
190	0x3931b6ad	0.00016948087
191	0xb9f82b8c	-0.0004733469
192	0xbab20954	-0.0013583102
193	0xb9536588	-0.00020160351
194	0xb90558e0	-0.00012716977
195	0x3997e5e5	0.0002897225
196	0xb89953b3	-7.311199e-05
197	0xb941c032	-0.00018477513
198	0x3add4201	0.0016880633
199	0xba7ae54c	-0.0009570911
200	0xbb3c4193	-0.0028725609
201	0xb9d84658	-0.0004125114
202	0x3b29e0b6	0.0025921292
203	0xbabafef4	-0.0014266656
204	0xbb478457	-0.003044387
205	0x3ad0eb01	0.0015939177
206	0xba1db76c	-0.00060164067
207	0x3a8e5854	0.0010860064
208	0xbb173f15	-0.0023078371
209	0x3b5b58a4	0.0033469582
210	0x3af0d15e	0.0018372943
211	0xbb9497f1	-0.0045347144
212	0xba257a89	-0.00063125096
213	0x3a289fd9	0.00064325106
214	0x3a97d287	0.0011583128
215	0x398b5127	0.0002657261
216	0xbada3dab	-0.0016650459
217	0xb93bff84	-0.00017928897
218	0xbaf148a7	-0.0018408493
219	0xba4dfc71	-0.0007857746
220	0x39914d89	0.00027714323
221	0xba49a5d5	-0.00076922524
222	0xbb3650e5	-0.0027819213
223	0x3b461565	0.0030225154
224	0xba12fa8f	-0.0005606794
225	0x3b080c4a	0.0020759278
226	0xb9f53f96	-0.00046777417
227	0xb9513cc3	-0.00019954429
228	0x3a323a7a	0.0006798875
229	0xbb01bd8a	-0.0019796812
230	0xbb3e7c96	-0.0029065958
231	0xbad1df3a	-0.0016011961
232	0xba879d2a	-0.0010346521
233	0x3aff3ea1	0.0019473621
234	0xbb8f9972	-0.004382306
235	0x3b40ce52	0.0029419851
236	0xba1aac27	-0.00059002865
237	0xbb14b53e	-0.0022691037
238	0x3b5c7d7e	0.0033644135
239	0xbb4efae0	-0.0031582639
240	0xba8775ec	-0.0010334826
241	0xb9e1b204	-0.00043047976
242	0xbb1476d0	-0.0022653826
243	0xba50695c	-0.000795027
244	0xbb00fbc3	-0.0019681312
245	0x3a76b1d0	0.00094106514
246	0x39e5f9ab	0.000438643
247	0xb91b9cee	-0.00014840413
248	0xbad36567	-0.0016128243
249	0x38e03606	0.00010691215
250	0xb99e4aa9	-0.00030191735
251	0x39a19e0b	0.00030826064
252	0x399d0c56	0.00029954565
253	0xbb6d4f56	-0.0036210618
254	0x39c34c13	0.00037249978
255	0xba6f81e3	-0.0009136481

model/conv2d_1/BiasAdd/ReadVariableOp f4 [64]
0	0x3e8d6f21	0.27623847
1	0x3cd4fbd0	0.02599898
2	0xbd8ae7e8	-0.06782514
3	0xbd253a2a	-0.040338673
4	0xbddbcaa4	-0.1073201
5	0xbd69aa4f	-0.057047185
6	0xbbfe7dac	-0.007766446
7	0xbd377979	-0.04479358
8	0xbdcf658c	-0.101267904
9	0xbd7b9c00	-0.06142807
10	0xbd89c27c	-0.06726548
11	0xbe422e48	-0.18962967
12	0xbd9544cf	-0.07288515
13	0xbd9ea9a6	-0.077472016
14	0x3c9282a0	0.017884552
15	0xbdb376fa	-0.08762927
16	0xbdaafdf3	-0.08349218
17	0xbdb47509	-0.08811385
18	0xbe5180bc	-0.20459265
19	0xbdc9c8b5	-0.09852735
20	0xbe0c93a8	-0.13728201
21	0xbe0517a1	-0.12997295
22	0x3b043295	0.002017175
23	0xbd96d60f	-0.07365047
24	0xbd8f49ec	-0.06996521
25	0xbd2fdde9	-0.04293624
26	0xbe1010bb	-0.14068882
27	0xbe06d0d3	-0.13165598
28	0xbda7c973	-0.0819272
29	0xbdf68ab1	-0.12038172
30	0xbd091aaf	-0.033472713
31	0xbd9a657b	-0.07538887
32	0xbd36a0d5	-0.044586975
33	0x3d17e4e4	0.03708352
34	0xbb9a0512	-0.0047003115
35	0xbd1fdc17	-0.039028253
36	0xbda907f5	-0.08253471
37	0xbc6b0ca4	-0.0143462755
38	0xbd40c57f	-0.047063347
39	0xbdcba817	-0.0994417
40	0xbdafd65c	-0.08585808
41	0xbd648998	-0.055795282
42	0xbd3622a4	-0.04446663
43	0xbbf2b36c	-0.0074066427
44	0xbd51852f	-0.051152404
45	0xbda3b621	-0.07993723
46	0xbdbe21e9	-0.092838116
47	0xbcbbc16d	-0.022919381
48	0xbd2352e0	-0.039873958
49	0xbd1753b3	-0.036945056
50	0xbc16751f	-0.009183197
51	0xbcb4de4e	-0.02207866
52	0x3d0f63e4	0.035007372
53	0xbdf7b2fa	-0.12094684
54	0xbd919514	-0.071085125
55	0xbd6a3d17	-0.057187166
56	0xbd42c9c7	-0.04755571
57	0xbdfe8cc3	-0.12429192
58	0xbe0ee963	-0.13956217
59	0xbd9c1ed0	-0.076230645
60	0xbca528b7	-0.020161016
61	0xbdcfb815	-0.10142533
62	0xbc0c2741	-0.008554281
63	0xbd870fb8	-0.06594795

model/conv2d_1/Conv2D f4 [64, 3, 3, 32]
0	0x3e5aab62	0.2135444
1	0xbe84f426	-0.2596752
2	0x3d9cacd4	0.07650152
3	0x3dd54cc7	0.10415035
4	0x3e444249	0.19165911
5	0x3e02abb9	0.1276082
6	0xbbfc2e46	-0.007695946
7	0xbe351c3c	-0.17686552
8	0x3e9aa33d	0.30202666
9	0xbe3129ac	-0.17301053
10	0xbdfcbbc8	-0.12340504
11	0xbea5bdac	-0.3237127
12	0x3e85e7d8	0.26153445
13	0xbe236555	-0.15956624
14	0x3e6eead4	0.23331767
15	0xbde47fc9	-0.111571856
16	0xbd9e7068	-0.077362835
17	0xbed55adc	-0.41670883
18	0xbd906c15	-0.07051865
19	0xbc54ef95	-0.012996574
20	0xbceaa251	-0.028641852
21	0x3e4c4b11	0.1995051
22	0xbeb90a6d	-0.36140767
23	0xbd63f4e1	-0.055653457
24	0xbd8376a1	-0.06419111
25	0x3a85e98e	0.00102167
26	0xbd3de7e9	-0.046363745
27	0xbd979ab1	-0.07402552
28	0xbd7fb600	-0.062429428
29	0x3e6d17ee	0.2315366
30	0x3e3f27e0	0.18667555
31	0x3e239f7c	0.15978807
32	0x3cd94ab8	0.026524886
33	0xbe5bda1e	-0.21469924
34	0xbd940464	-0.072274
35	0x3cda9072	0.026680205
36	0xbe65f248	-0.22455704
37	0xbe071a93	-0.13193731
38	0xbe3bf02f	-0.18353342
39	0x3b86bae2	0.0041116336
40	0x3e25ffea	0.16210905
41	0xbd2c6f54	-0.04209836
42	0xbdd8d421	-0.105873354
43	0xbe37b26d	-0.17939158
44	0xbdf05789	-0.11735446
45	0xbd4a0a90	-0.04932648
46	0xbdd8b17a	-0.10580726
47	0x3cc91a2a	0.024548609
48	0xbccb49f3	-0.024815535
49	0xbed73a74	-0.42036784
50	0xbd931ad8	-0.071828544
51	0xbdfca0c2	-0.123353496
52	0xbd54d22f	-0.05195826
53	0xbaf68993	-0.0018809311
54	0x3e1add0e	0.15123388
55	0xbe6c589b	-0.23080675
56	0xbede24ed	-0.43387547
57	0xbd0bcafc	-0.034129128
58	0x3d64601f	0.05575573
59	0x3d73b063	0.059494387
60	0x3d9f603b	0.077820264
61	0xbd1029cf	-0.03519612
62	0xbcddcfa9	-0.02707656
63	0xbc080c38	-0.008303694
64	0xbe35e360	-0.17762518
65	0x3db6ebac	0.089316696
66	0x3d88a2ff	0.06671714
67	0xbe84aef4	-0.2591473
68	0xbe7df58c	-0.248007
69	0xbe9f4a58	-0.31111407
70	0xba97053c	-0.0011521946
71	0xbeb51788	-0.35369515
72	0x3e88277a	0.26592618
73	0x3badc845	0.005303415
74	0xbdd78781	-0.10523892
75	0x3b660b3b	0.0035101909
76	0xbe4940ba	-0.19653597
77	0xbd663c8e	-0.056210093
78	0xbd9a9cb1	-0.07549418
79	0xbe77a287	-0.24183093
80	0xbd99aec7	-0.07504039
81	0xbe1ae7dd	-0.15127511
82	0xbe52a27a	-0.20569792
83	0x3da24d98	0.07924956
84	0xbe657edb	-0.22411673
85	0x3d3916f9	0.045187924
86	0xbdc45f18	-0.0958845
87	0x3e0a36ae	0.13497421
88	0xbe0c4422	-0.13697866
89	0xbd3dae52	-0.046308823
90	0xbe76fae8	-0.2411915
91	0xbdf15e18	-0.11785525
92	0xbe374e28	-0.17900908
93	0x3e3d9915	0.18515427
94	0xbdb1a4c5	-0.086740054
95	0x3ddaac06	0.10677342
96	0x3dd415e3	0.10355737
97	0xbebc3f39	-0.36766985
98	0x3e2b5510	0.16731668
99	0xbee520ed	-0.44751683
100	0xbdba55d0	-0.09098399
101	0x3e033cfc	0.12816232
102	0x3d94b34e	0.07260762
103	0xbe5a723d	-0.21332641
104	0x3e6117b7	0.21981703
105	0xbd1d7554	-0.03844197
106	0xbe5be91e	-0.21475646
107	0xbe4e8d0b	-0.20170991
108	0x3ec3a443	0.3821126
109	0xbc8c34cd	-0.017115021
110	0x3d940766	0.07227974
111	0x3de09ccc	0.10967407
112	0xbe720692	-0.23635319
113	0xbf099f7d	-0.53758985
114	0xbeabb211	-0.3353429
115	0xbdabe8a9	-0.08393986
116	0xbe651d81	-0.22374536
117	0x3dff272a	0.12458642
118	0xbe96c71d	-0.29448786
119	0xbef9f898	-0.48822474
120	0xbe7cc7f3	-0.2468565
121	0x3e4cc920	0.19998598
122	0xbe81fdde	-0.25388998
123	0xbea2f328	-0.31826138
124	0xbddb5ceb	-0.10711082
125	0xbd96e057	-0.07367008
126	0x3c3cefe6	0.011531806
127	0x3c632f04	0.01386619
128	0x3d4d8db3	0.050183963
129	0xbe366256	-0.1781095
130	0x3d0e0d06	0.03468039
131	0xbe3982d0	-0.18116307
132	0xbc65ae4f	-0.014018609
133	0xbd551452	-0.052021332
134	0xbd5508fa	-0.052010514
135	0xbe255e27	-0.16149198
136	0x3d86a20d	0.065738775
137	0xbe52fba8	-0.20603812
138	0xbdc657fe	-0.09684752
139	0xbe408c0e	-0.18803427
140	0x3d82e5ca	0.06391485
141	0x3e2582fe	0.16163251
142	0x3e0fd923	0.14047675
143	0xbdfcf443	-0.12351277
144	0xbe903f69	-0.28173378
145	0xbe98dc5d	-0.29855624
146	0xbe604065	-0.21899565
147	0x3dea4540	0.1143899
148	0xbdc4efdf	-0.09616064
149	0xbd555de2	-0.052091487
150	0x3d88f238	0.066868246
151	0xbf0c01d5	-0.54690295
152	0xbe76ac4a	-0.2408916
153	0xbeadc020	-0.33935642
154	0xbe9e8a44	-0.30964863
155	0xbd188f69	-0.03724614
156	0xbc529fac	-0.012855452
157	0xbe53d4fd	-0.20686717
158	0xbe4a996e	-0.19785091
159	0xbe1d6341	-0.15369894
160	0xbe6ffdd2	-0.23436669
161	0xbe8543f9	-0.26028422
162	0x3cb3c939	0.021946536
163	0xbe4af387	-0.19819461
164	0xbe511c38	-0.20420921
165	0x3d53f12d	0.051743675
166	0xbc1df726	-0.009641444
167	0xbea889d5	-0.32917657
168	0xbe39bb5d	-0.1813788
169	0x3cc43866	0.023952674
170	0xbe4fc1b5	-0.20288737
171	0x3c86006e	0.016357627
172	0x3e8c9457	0.27456924
173	0xbe3c2771	-0.1837442
174	0xbe687788	-0.22701848
175	0xbe3c7e9e	-0.18407676
176	0xbe580381	-0.21095087
177	0xbe7d772b	-0.2475249
178	0xbec32bfa	-0.3811949
179	0xbc8f0ee0	-0.017463148
180	0xbde8b59b	-0.113627635
181	0xbd6e9e88	-0.058256656
182	0xbe2fd2bd	-0.17170234
183	0x3c06e09e	0.008232264
184	0x3d928c6d	0.0715569
185	0xbd9603e5	-0.073249616
186	0xbdbe69ab	-0.09297498
187	0x3cbca560	0.023028076
188	0xbe2e3c0a	-0.1701509
189	0xbdc94ef5	-0.09829513
190	0xbee53572	-0.44767338
191	0xbda535df	-0.08066916
192	0xbdbfb8a8	-0.09361392
193	0xba2ed2e0	-0.0006668996
194	0x3ec82e3e	0.3909778
195	0xbe58ba4b	-0.21164815
196	0x3d04e008	0.032440215
197	0xbe23d2cb	-0.1599838
198	0x3d9869fb	0.07442089
199	0xbd2fbdd4	-0.042905644
200	0x3e046f84	0.12933165
201	0xbe450623	-0.19240622
202	0xbd4c9774	-0.049949124
203	0xbe22a1ab	-0.15881984
204	0x3d429272	0.047502942
205	0x3d8e10c0	0.069367886
206	0x3e5302b8	0.20606506
207	0x3e3a8fc5	0.18218906
208	0xbb8ca9e9	-0.004292716
209	0xbeec8308	-0.4619372
210	0xbf37d898	-0.7181487
211	0xbc64d29f	-0.013966232
212	0xbe9c1ca3	-0.30490598
213	0x3dc982b2	0.09839381
214	0x3d10004a	0.035156526
215	0xbea9f3d7	-0.33193848
216	0xbe26151d	-0.16218992
217	0xbdf05b0a	-0.11736114
218	0xbe94bd1f	-0.29050538
219	0xbcbe269e	-0.023211773
220	0xbdc04093	-0.093873166
221	0xbda1e9f0	-0.07905948
222	0xbec8ac75	-0.39194074
223	0x3cd52b3d	0.026021594
224	0xbe57cfd9	-0.21075381
225	0xbdd075e5	-0.101787366
226	0x3c9edf93	0.019393718
227	0xbed9da05	-0.42549148
228	0xbd4ba5b7	-0.049718585
229	0xbda3838a	-0.079840735
230	0xbe40099e	-0.18753669
231	0xbd3e7c74	-0.046505406
232	0xbcdc88cc	-0.026920699
233	0xbe2d4d3a	-0.16923991
234	0xbe328fe4	-0.17437702
235	0xbdd5619c	-0.10419008
236	0x3dbd52aa	0.092442825
237	0x3d1610a3	0.03663696
238	0x3da6536b	0.081213795
239	0xbde5eaba	-0.11226411
240	0xbe1771f1	-0.14789559
241	0xbe846010	-0.2585454
242	0xbe4dda77	-0.20102869
243	0xbd15543b	-0.03645728
244	0xbe028c44	-0.1274882
245	0xbcad5fd2	-0.021163855
246	0x3e83146e	0.25601524
247	0xbe49a70d	-0.19692631
248	0xbe4e7286	-0.20160875
249	0xbe48ae8d	-0.19597836
250	0xbcf00b41	-0.029302241
251	0xbdcec9a7	-0.10097056
252	0xbd2fc5e2	-0.042913325
253	0x3d3ed983	0.046594154
254	0xbef9d8f0	-0.48798323
255	0xbea06702	-0.3132859

model/dense/BiasAdd/ReadVariableOp f4 [10]
0	0xbd34b788	-0.04412034
1	0x3f184ac3	0.5948908
2	0x3e1a94a9	0.15095772
3	0xbba22cc4	-0.004949184
4	0xbe3a72c7	-0.18207847
5	0x3d164a61	0.036692027
6	0xbbe4daca	-0.0069840895
7	0x3e5467c1	0.20742704
8	0xbef3bba3	-0.47604093
9	0xbda256f3	-0.079267405

model/dense/MatMul f4 [10, 9216]
0	0x3c00694c	0.007837605
1	0xbd96658e	-0.07343589
2	0xbe6fb627	-0.2340933
3	0xbdecaa13	-0.115558766
4	0x3bbde61f	0.005795255
5	0x3e1dca3b	0.15409176
6	0xbdbf0d55	-0.09328715
7	0xbccbe434	-0.02488909
8	0xbe91f8ec	-0.28510225
9	0xbcb53e6b	-0.02212449
10	0x3d1a3bf8	0.037654847
11	0xbd6fb45f	-0.058521625
12	0x3e086e05	0.13323219
13	0xbc845373	-0.016153073
14	0xbdf928ed	-0.12166009
15	0xbd2fc816	-0.042915426
16	0xbe3abfbb	-0.18237202
17	0x3da1f81f	0.079086535
18	0xbc5abd43	-0.013350788
19	0xbbea1931	-0.0071441163
20	0xbc0eb044	-0.008709017
21	0x3cb49434	0.022043325
22	0x3c15af1f	0.00913599
23	0x3dc0ddce	0.09417306
24	0xbd10316b	-0.03520338
25	0x3a6224bb	0.0008626689
26	0x3d9cdcd3	0.076593064
27	0xbcbd6ed2	-0.023124132
28	0xbcecc09a	-0.028900433
29	0x3b0f129b	0.0021831158
30	0x3b797978	0.0038066786
31	0x3dc4d1e4	0.09610346
32	0xbdccd239	-0.10001034
33	0x38c97cd7	9.60768e-05
34	0xbde70c0e	-0.11281596
35	0xbe945ea7	-0.28978464
36	0xbcae6c70	-0.021291941
37	0x3ea05dcb	0.31321558
38	0xbcd62824	-0.026142187
39	0xbd4f1526	-0.050557278
40	0xbd40850a	-0.047001876
41	0xbc80f289	-0.01574065
42	0xbd71cca9	-0.05903307
43	0xbbd50d99	-0.006501865
44	0x3d6c9ceb	0.057766836
45	0xbe8c78b4	-0.2743584
46	0xbb5f2a74	-0.0034052404
47	0x3deee5c9	0.11664922
48	0x3c15dc24	0.009146724
49	0x3e15bafa	0.14622107
50	0xbd142907	-0.03617194
51	0x3d8702ab	0.06592306
52	0x3da360ae	0.079774246
53	0xbb29d77a	-0.0025915788
54	0x3e0b285c	0.13589615
55	0x3db62c76	0.08895199
56	0x3d79eb59	0.06101546
57	0x3cafdc24	0.021467276
58	0xbd1f60fb	-0.038910847
59	0xbd28903a	-0.04115317
60	0xbd6a16bf	-0.0571506
61	0xbe2e0fa3	-0.16998152
62	0xbb1a8495	-0.002357756
63	0x3c878b2c	0.016545855
64	0xbc6b337a	-0.014355535
65	0xbd270dfd	-0.040784825
66	0xbe5eaf42	-0.21746543
67	0xbd2c4e6e	-0.042066984
68	0xbce9a8a7	-0.028522803
69	0xbd5fd10f	-0.054642733
70	0xbe0ad3e5	-0.13557394
71	0xbe807f14	-0.25096953
72	0xbdaf74ad	-0.08567176
73	0xbc6163e0	-0.013756722
74	0x3e34b60f	0.17647575
75	0x3bbd1bf4	0.0057711545
76	0xbe82f013	-0.25573787
77	0xbce8a361	-0.028398218
78	0xbdf01c6c	-0.11724171
79	0x3d996ac5	0.07491068
80	0xbc932312	-0.017961059
81	0xbd193bf6	-0.0374107
82	0xbcc3acf9	-0.02388619
83	0xbcfc28b7	-0.030781133
84	0x3da8b826	0.082382485
85	0xbcda80b9	-0.026672708
86	0xbdf8b974	-0.121447474
87	0xbcfc07e3	-0.03076548
88	0xbc27dea0	-0.010245949
89	0xbbcea9df	-0.0063068713
90	0xba1c2f7f	-0.0005958005
91	0xbcf48ae6	-0.029851388
92	0xbd1381d0	-0.03601247
93	0xbe221df8	-0.15831745
94	0x3afbbe99	0.0019206583
95	0xbee36b9d	-0.4441804
96	0xbda46dd6	-0.08028762
97	0xbd042f30	-0.032271564
98	0xbe50706b	-0.20355384
99	0xbe5e4cc2	-0.21708968
100	0xbdfd29aa	-0.123614624
101	0x3dc16bd2	0.09444393
102	0x3dd4aa36	0.10384028
103	0x3daa5b62	0.08318211
104	0xbd716b22	-0.05894006
105	0xbdd94769	-0.106093235
106	0xbc19a39b	-0.0093773855
107	0xbdd92187	-0.10602098
108	0x3e073816	0.13204989
109	0x3db0b5ed	0.086284496
110	0xbcbe0b61	-0.023198785
111	0xbe565774	-0.20931798
112	0xbe24fed3	-0.16112833
113	0xbe107c3c	-0.14109892
114	0xbd0f4fbf	-0.03498816
115	0xbd82e43e	-0.0639119
116	0xbd7fcd8e	-0.06245189
117	0xbda511d4	-0.08060041
118	0x3c3a5a08	0.011374004
119	0x3d2b39c6	0.041803144
120	0x3ce44e35	0.027869323
121	0xbc4f8160	-0.012665123
122	0xbd7d8fba	-0.061904646
123	0x3d809bf5	0.062797464
124	0xbde8aec8	-0.11361462
125	0xbeb45340	-0.35219765
126	0xbd8ba5d3	-0.06818738
127	0xbcaaa7dc	-0.020831995
128	0x3ac46f5d	0.0014986802
129	0x3d6389a9	0.055551205
130	0x3e06838c	0.13136119
131	0xbe163d56	-0.14671835
132	0xbc57aab0	-0.013163254
133	0xbe2d70e5	-0.16937597
134	0xbd8a470f	-0.067518346
135	0xbe7f1f46	-0.24914274
136	0x3bdabc1c	0.0066752564
137	0xbd22f85d	-0.03978764
138	0x3d9e35db	0.07725116
139	0xbe490e9c	-0.1963448
140	0xbe3b21e4	-0.18274647
141	0xbde97fa5	-0.114012994
142	0xbc69477c	-0.014238235
143	0xbe187be7	-0.14891015
144	0xbe76ae50	-0.24089932
145	0x3dbeb093	0.093110226
146	0xbdaea51a	-0.085275844
147	0xbcd872d6	-0.026421946
148	0xbd673a9e	-0.056452386
149	0xbe347b4d	-0.1762516
150	0xbedfeb81	-0.43734363
151	0xbeadbba3	-0.33932218
152	0x3d02937d	0.031878937
153	0xbdd5cbb7	-0.10439246
154	0x3ab9b77a	0.001416906
155	0xbd12782b	-0.035759132
156	0x3e062ce0	0.13103056
157	0xbd6dfba8	-0.058101326
158	0x3ba5ebc7	0.0050635072
159	0xbb867baa	-0.0041040974
160	0xbd0a3828	-0.03374496
161	0xbd273ad0	-0.040827572
162	0xbe167a18	-0.14695013
163	0xbe3754c4	-0.1790343
164	0xbdef6426	-0.11689024
165	0x3cce3203	0.025170332
166	0xbd9058c6	-0.07048182
167	0x3e331cd1	0.17491461
168	0xbd41d5d1	-0.04732305
169	0xbd4cf64a	-0.050039567
170	0x3ce956fe	0.028483864
171	0xbe35a5af	-0.17738985
172	0xbdc7ea50	-0.097614884
173	0x3c489401	0.012242318
174	0xbd94b884	-0.07261756
175	0xbe632467	-0.22181855
176	0x3d9fd8cd	0.07805023
177	0x3d3a9d58	0.04556021
178	0x3c277fbf	0.010223328
179	0x3d063795	0.03276785
180	0x3d3c4d2a	0.045972027
181	0xbe2bc03c	-0.1677255
182	0xbdfb36d0	-0.12266314
183	0x3dc61259	0.09671468
184	0xbdd5bf18	-0.10436839
185	0xbdece5af	-0.11567246
186	0x3d1ce7cd	0.038307
187	0x3cd640a4	0.02615387
188	0xbd38a925	-0.045083184
189	0xbd3b750f	-0.045765933
190	0xbe14974e	-0.14510843
191	0x3cc19fe5	0.023635814
192	0xbc848b7a	-0.016179789
193	0xbe37d62e	-0.17952797
194	0xbe5a2a5a	-0.21305218
195	0xbe17cd10	-0.14824319
196	0xbdc315fb	-0.09525677
197	0xbb3d8dca	-0.0028923624
198	0x3d27496a	0.040841497
199	0x3ce425cd	0.027850056
200	0x3db91e3c	0.0903897
201	0xbe363fe5	-0.17797811
202	0x3e1e89cd	0.15482254
203	0xbdd288ad	-0.10279975
204	0xbce8eaf9	-0.028432356
205	0x3d5d1b07	0.053980853
206	0xbea5f233	-0.32411346
207	0xbeaa48f4	-0.33258784
208	0xbe2ec1f8	-0.1706618
209	0xbea39ac0	-0.31954002
210	0xbb280b23	-0.0025641404
211	0xbd79c3f2	-0.060977884
212	0xbe7e18e1	-0.24814178
213	0xbdbb1f6b	-0.09136852
214	0x3d9e0ccf	0.07717287
215	0xbe1b540a	-0.15168777
216	0xbd763ff2	-0.060119577
217	0xb89d6d21	-7.50667e-05
218	0xbd7bedd4	-0.061506107
219	0xbd779f5e	-0.06045472
220	0xbbf8f5f8	-0.007597681
221	0xbd2cf565	-0.042226214
222	0xbcab5970	-0.02091667
223	0xbd17af48	-0.037032396
224	0x3d4164c0	0.047215223
225	0x3ca50740	0.020145059
226	0xbe50eabb	-0.20402043
227	0xbe77810d	-0.24170323
228	0x3bf19638	0.007372644
229	0xbe482a3c	-0.19547361
230	0xbe2dfd5b	-0.16991179
231	0xbdbeba60	-0.09312892
232	0xbe041151	-0.1289723
233	0x3ca21216	0.019784015
234	0xbe086d8c	-0.13323039
235	0x3cd4029d	0.025880152
236	0xbd2d71c4	-0.042344823
237	0x3df6a9ea	0.12044127
238	0xbdd230c4	-0.102632076
239	0xbdd1eb58	-0.102499664
240	0xbde1e3f5	-0.110298075
241	0x3d8d4ceb	0.068994366
242	0xbdb84ec6	-0.089994
243	0x3bf97eb7	0.0076139825
244	0xbc6c9430	-0.0144396275
245	0xbe4f8f5c	-0.20269531
246	0xbe2a1acb	-0.16611783
247	0x3deee42d	0.11664615
248	0xbea7535f	-0.32680795
249	0xbe477cb0	-0.19481158
250	0x3d9d54ac	0.076821655
251	0x3e030947	0.12796508
252	0xbe8839b0	-0.26606512
253	0x3df45166	0.11929588
254	0x3dd28667	0.102795415
255	0xbe54cb7a	-0.20780745
